transformer_model.pt (torch, 15621 bytes, 6 tensors)

in_proj_weight f4 [3, 1]
000000 76 ef 7d bf a7 0f 72 3d dc 13 37 bf
       -0.99193513 0.05909696 -0.7151468

in_proj_bias f4 [3]
000000 00 00 00 00 00 00 00 00 00 00 00 00
       0.0 0.0 0.0

in_proj_weight f4 [3, 1]
000000 2a 40 3e be 86 88 00 3f b8 ca 8f bf
       -0.18579164 0.5020832 -1.123374

in_proj_bias f4 [3]
000000 00 00 00 00 00 00 00 00 00 00 00 00
       0.0 0.0 0.0

in_proj_weight f4 [3, 1]
000000 08 3f 20 3f dc 86 ce 3e 62 c8 17 bf
       0.6259618 0.40337265 -0.59290135

in_proj_bias f4 [3]
000000 00 00 00 00 00 00 00 00 00 00 00 00
       0.0 0.0 0.0
