transformer_model_good.pt (torch, 15621 bytes, 6 tensors)

in_proj_weight f4 [3, 1]
-0.04528877 -0.11360642 -1.168268
00000000: b880 39bd 7caa e8bd ce89 95bf

in_proj_bias f4 [3]
0.0 0.0 0.0
00000000: 0000 0000 0000 0000 0000 0000

in_proj_weight f4 [3, 1]
-0.18213533 -0.68310714 0.18411584
00000000: af81 3abe 1ce0 2ebf dd88 3c3e

in_proj_bias f4 [3]
0.0 0.0 0.0
00000000: 0000 0000 0000 0000 0000 0000

in_proj_weight f4 [3, 1]
-1.1550701 -0.22123556 -0.10323818
00000000: 56d9 93bf 938b 62be 8a6e d3bd

in_proj_bias f4 [3]
0.0 0.0 0.4713878
00000000: 0000 0000 0000 0000 be59 f13e
