transformer_model.pt (torch, 53965 bytes, 24 tensors)

in_proj_weight f4 [3, 1]
00000000: e720 403f b1d9 5ebf 89e1 423f
0.75050205 -0.8705092 0.7612539

in_proj_bias f4 [3]
00000000: 0000 0000 0000 0000 0000 0000
0.0 0.0 0.0

in_proj_weight f4 [3, 1]
00000000: e720 403f b1d9 5ebf 89e1 423f
0.75050205 -0.8705092 0.7612539

in_proj_bias f4 [3]
00000000: 0000 0000 0000 0000 0000 0000
0.0 0.0 0.0

in_proj_weight f4 [3, 1]
00000000: e720 403f b1d9 5ebf 89e1 423f
0.75050205 -0.8705092 0.7612539

in_proj_bias f4 [3]
00000000: 0000 0000 0000 0000 0000 0000
0.0 0.0 0.0

in_proj_weight f4 [3, 1]
00000000: e720 403f b1d9 5ebf 89e1 423f
0.75050205 -0.8705092 0.7612539

in_proj_bias f4 [3]
00000000: 0000 0000 0000 0000 0000 0000
0.0 0.0 0.0

in_proj_weight f4 [3, 1]
00000000: 5ed7 653f ab9c bebd 4f53 28be
0.8978175 -0.09307226 -0.1643803

in_proj_bias f4 [3]
00000000: 0000 0000 0000 0000 0000 0000
0.0 0.0 0.0

in_proj_weight f4 [3, 1]
00000000: 58f1 81bf a96d 0fbf c940 bfbd
-1.0151777 -0.56026703 -0.09338529

in_proj_bias f4 [3]
00000000: 0000 0000 0000 0000 0000 0000
0.0 0.0 0.0

in_proj_weight f4 [3, 1]
00000000: 5ed7 653f ab9c bebd 4f53 28be
0.8978175 -0.09307226 -0.1643803

in_proj_bias f4 [3]
00000000: 0000 0000 0000 0000 0000 0000
0.0 0.0 0.0

in_proj_weight f4 [3, 1]
00000000: 58f1 81bf a96d 0fbf c940 bfbd
-1.0151777 -0.56026703 -0.09338529

in_proj_bias f4 [3]
00000000: 0000 0000 0000 0000 0000 0000
0.0 0.0 0.0

in_proj_weight f4 [3, 1]
00000000: 5ed7 653f ab9c bebd 4f53 28be
0.8978175 -0.09307226 -0.1643803

in_proj_bias f4 [3]
00000000: 0000 0000 0000 0000 0000 0000
0.0 0.0 0.0

in_proj_weight f4 [3, 1]
00000000: 58f1 81bf a96d 0fbf c940 bfbd
-1.0151777 -0.56026703 -0.09338529

in_proj_bias f4 [3]
00000000: 0000 0000 0000 0000 0000 0000
0.0 0.0 0.0

in_proj_weight f4 [3, 1]
00000000: 5ed7 653f ab9c bebd 8651 4bbc
0.8978175 -0.09307226 -0.012409573

in_proj_bias f4 [3]
00000000: a471 61ae d2d3 02af 1ff0 203d
-5.126001e-11 -1.1898685e-10 0.039291497

in_proj_weight f4 [3, 1]
00000000: 56e7 41bf d212 92bf a1ff a7c0
-0.75743616 -1.1411994 -5.2499547

in_proj_bias f4 [3]
00000000: 28a5 ae3e e885 a93f 6537 ad40
0.3411038 1.324399 5.413012
