transformer_model_partial.pt (torch, 53965 bytes, 24 tensors)

in_proj_weight f4 [3, 1]
000000 85 d2 8e be 36 aa 5b bf 5b 75 95 be
       -0.2789499 -0.85806596 -0.29191098

in_proj_bias f4 [3]
000000 00 00 00 00 00 00 00 00 00 00 00 00
       0.0 0.0 0.0

in_proj_weight f4 [3, 1]
000000 85 d2 8e be 36 aa 5b bf 5b 75 95 be
       -0.2789499 -0.85806596 -0.29191098

in_proj_bias f4 [3]
000000 00 00 00 00 00 00 00 00 00 00 00 00
       0.0 0.0 0.0

in_proj_weight f4 [3, 1]
000000 85 d2 8e be 36 aa 5b bf 5b 75 95 be
       -0.2789499 -0.85806596 -0.29191098

in_proj_bias f4 [3]
000000 00 00 00 00 00 00 00 00 00 00 00 00
       0.0 0.0 0.0

in_proj_weight f4 [3, 1]
000000 85 d2 8e be 36 aa 5b bf 5b 75 95 be
       -0.2789499 -0.85806596 -0.29191098

in_proj_bias f4 [3]
000000 00 00 00 00 00 00 00 00 00 00 00 00
       0.0 0.0 0.0

in_proj_weight f4 [3, 1]
000000 74 2b 8b bf b1 ef 64 3f 3e 4c 8e 3f
       -1.0872636 0.8942824 1.1117017

in_proj_bias f4 [3]
000000 00 00 00 00 00 00 00 00 00 00 00 00
       0.0 0.0 0.0

in_proj_weight f4 [3, 1]
000000 b0 ea 05 3f bd 0d 8e 3e dd b6 8b bf
       0.5231123 0.27744856 -1.091518

in_proj_bias f4 [3]
000000 00 00 00 00 00 00 00 00 00 00 00 00
       0.0 0.0 0.0

in_proj_weight f4 [3, 1]
000000 74 2b 8b bf b1 ef 64 3f 3e 4c 8e 3f
       -1.0872636 0.8942824 1.1117017

in_proj_bias f4 [3]
000000 00 00 00 00 00 00 00 00 00 00 00 00
       0.0 0.0 0.0

in_proj_weight f4 [3, 1]
000000 b0 ea 05 3f bd 0d 8e 3e dd b6 8b bf
       0.5231123 0.27744856 -1.091518

in_proj_bias f4 [3]
000000 00 00 00 00 00 00 00 00 00 00 00 00
       0.0 0.0 0.0

in_proj_weight f4 [3, 1]
000000 74 2b 8b bf b1 ef 64 3f 3e 4c 8e 3f
       -1.0872636 0.8942824 1.1117017

in_proj_bias f4 [3]
000000 00 00 00 00 00 00 00 00 00 00 00 00
       0.0 0.0 0.0

in_proj_weight f4 [3, 1]
000000 b0 ea 05 3f bd 0d 8e 3e dd b6 8b bf
       0.5231123 0.27744856 -1.091518

in_proj_bias f4 [3]
000000 00 00 00 00 00 00 00 00 00 00 00 00
       0.0 0.0 0.0

in_proj_weight f4 [3, 1]
000000 74 2b 8b bf b1 ef 64 3f 3e 4c 8e 3f
       -1.0872636 0.8942824 1.1117017

in_proj_bias f4 [3]
000000 00 00 00 00 00 00 00 00 00 00 00 00
       0.0 0.0 0.0

in_proj_weight f4 [3, 1]
000000 e4 f1 05 3f 62 25 8e 3e 00 84 ce bf
       0.5232222 0.27762896 -1.6134033

in_proj_bias f4 [3]
000000 b6 8e 05 b9 90 b5 d6 b9 7d e5 ac 3f
       -0.00012737032 -0.00040952535 1.3507534
