transformer_model_decent.pt (torch, 53965 bytes, 24 tensors)

in_proj_weight f4 [3, 1]
000000 9c ae 0a 3f df 57 a1 3e d1 fe 7d be
       0.5417268 0.31512353 -0.24804236

in_proj_bias f4 [3]
000000 00 00 00 00 00 00 00 00 00 00 00 00
       0.0 0.0 0.0

in_proj_weight f4 [3, 1]
000000 9c ae 0a 3f df 57 a1 3e d1 fe 7d be
       0.5417268 0.31512353 -0.24804236

in_proj_bias f4 [3]
000000 00 00 00 00 00 00 00 00 00 00 00 00
       0.0 0.0 0.0

in_proj_weight f4 [3, 1]
000000 9c ae 0a 3f df 57 a1 3e d1 fe 7d be
       0.5417268 0.31512353 -0.24804236

in_proj_bias f4 [3]
000000 00 00 00 00 00 00 00 00 00 00 00 00
       0.0 0.0 0.0

in_proj_weight f4 [3, 1]
000000 9c ae 0a 3f df 57 a1 3e d1 fe 7d be
       0.5417268 0.31512353 -0.24804236

in_proj_bias f4 [3]
000000 00 00 00 00 00 00 00 00 00 00 00 00
       0.0 0.0 0.0

in_proj_weight f4 [3, 1]
000000 e9 e9 18 3c 45 e3 48 3e 13 6b 8a 3f
       0.009333112 0.19617946 1.0813926

in_proj_bias f4 [3]
000000 00 00 00 00 00 00 00 00 00 00 00 00
       0.0 0.0 0.0

in_proj_weight f4 [3, 1]
000000 d0 d9 5b be 3b 5c 81 bf 3c 2c c5 be
       -0.21469808 -1.0106272 -0.3851031

in_proj_bias f4 [3]
000000 00 00 00 00 00 00 00 00 00 00 00 00
       0.0 0.0 0.0

in_proj_weight f4 [3, 1]
000000 e9 e9 18 3c 45 e3 48 3e 13 6b 8a 3f
       0.009333112 0.19617946 1.0813926

in_proj_bias f4 [3]
000000 00 00 00 00 00 00 00 00 00 00 00 00
       0.0 0.0 0.0

in_proj_weight f4 [3, 1]
000000 d0 d9 5b be 3b 5c 81 bf 3c 2c c5 be
       -0.21469808 -1.0106272 -0.3851031

in_proj_bias f4 [3]
000000 00 00 00 00 00 00 00 00 00 00 00 00
       0.0 0.0 0.0

in_proj_weight f4 [3, 1]
000000 e9 e9 18 3c 45 e3 48 3e 13 6b 8a 3f
       0.009333112 0.19617946 1.0813926

in_proj_bias f4 [3]
000000 00 00 00 00 00 00 00 00 00 00 00 00
       0.0 0.0 0.0

in_proj_weight f4 [3, 1]
000000 d0 d9 5b be 3b 5c 81 bf 3c 2c c5 be
       -0.21469808 -1.0106272 -0.3851031

in_proj_bias f4 [3]
000000 00 00 00 00 00 00 00 00 00 00 00 00
       0.0 0.0 0.0

in_proj_weight f4 [3, 1]
000000 e9 e9 18 3c 45 e3 48 3e 13 6b 8a 3f
       0.009333112 0.19617946 1.0813926

in_proj_bias f4 [3]
000000 00 00 00 00 00 00 00 00 00 00 00 00
       0.0 0.0 0.0

in_proj_weight f4 [3, 1]
000000 23 8a 7a be 1a 4a 82 bf d0 2a 67 c0
       -0.24466757 -1.0178864 -3.611988

in_proj_bias f4 [3]
000000 d1 bb 60 3c 7b bd c0 ba 1d 5b 75 c0
       0.013716654 -0.0014704907 -3.833686
