transformer_model_off.pt (torch, 53965 bytes, 122 tensors)

in_proj_weight f4 [6, 2]
000000 a4 3b 57 3f ac 5b 93 3e 5b 0d 91 3e d2 f6 4d 3e
       0.8407538 0.28780878 0.28330502 0.20113686
000010 b3 9e 23 bf 2c 91 b6 be 77 83 1c 3f 35 31 f5 be
       -0.6391403 -0.35657632 0.611381 -0.47889104
000020 3b 09 99 3e dd a3 22 3f 49 4b 44 bf 8d 06 22 bf
       0.29889855 0.63531286 -0.76677376 -0.63291246

in_proj_bias f4 [6]
000000 00 00 00 00 00 00 00 00 00 00 00 00 00 00 00 00
       0.0 0.0 0.0 0.0
000010 20 bc 3e 83 06 08 92 85
       -5.605194e-37 -1.3732721e-35

weight f4 [2, 2]
000000 b4 3a ae 3c b3 52 ac be 4f f4 6f 3d ac 6e 98 3e
       0.021268226 -0.33656844 0.0585826 0.29771936

bias f4 [2]
000000 16 0d 0f 06 9e 8f 0d 86
       2.6904925e-35 -2.6624666e-35

weight f4 [2, 2]
000000 c1 3b 80 3e 52 93 39 3e 86 8f 17 be c2 15 2b bf
       0.2504559 0.18122604 -0.14800844 -0.66830075

bias f4 [2]
000000 58 d8 91 3d 96 00 1e bf
       0.071213424 -0.61719644

weight f4 [2, 2]
000000 2b 72 19 3f b1 52 cd 3d 8e 63 2a 3f 0c db 68 3d
       0.5993983 0.10025538 0.6655816 0.056849524

bias f4 [2]
000000 4d ea bc 3d 3a aa 11 bf
       0.09224377 -0.5690037

weight f4 [2]
000000 00 00 80 3f 00 00 80 3f
       1.0 1.0

bias f4 [2]
000000 b1 8e 28 15 84 b8 31 95
       3.4039893e-26 -3.5890423e-26

weight f4 [2]
000000 00 00 80 3f 00 00 80 3f
       1.0 1.0

bias f4 [2]
000000 fd e2 55 1e 26 1b b4 9d
       1.1323066e-20 -4.7673674e-21

in_proj_weight f4 [6, 2]
000000 a4 3b 57 3f ac 5b 93 3e 5b 0d 91 3e d2 f6 4d 3e
       0.8407538 0.28780878 0.28330502 0.20113686
000010 b3 9e 23 bf 2c 91 b6 be 77 83 1c 3f 35 31 f5 be
       -0.6391403 -0.35657632 0.611381 -0.47889104
000020 3b 09 99 3e dd a3 22 3f 49 4b 44 bf 8d 06 22 bf
       0.29889855 0.63531286 -0.76677376 -0.63291246

in_proj_bias f4 [6]
000000 04 01 44 8d 1f 4e f5 8e 0f 2a f5 0d d9 eb 22 8d
       -6.0398386e-31 -6.047239e-30 1.5109416e-30 -5.0203995e-31
000010 8a d3 b0 9b 96 1a b8 9d
       -2.9253461e-22 -4.8731884e-21

weight f4 [2, 2]
000000 b4 3a ae 3c b3 52 ac be 4f f4 6f 3d ac 6e 98 3e
       0.021268226 -0.33656844 0.0585826 0.29771936

bias f4 [2]
000000 53 58 10 1e 05 1e 13 9e
       7.6415615e-21 -7.788323e-21

weight f4 [2, 2]
000000 c1 3b 80 3e 52 93 39 3e 86 8f 17 be c2 15 2b bf
       0.2504559 0.18122604 -0.14800844 -0.66830075

bias f4 [2]
000000 58 d8 91 3d 96 00 1e bf
       0.071213424 -0.61719644

weight f4 [2, 2]
000000 2b 72 19 3f b1 52 cd 3d 8e 63 2a 3f 0c db 68 3d
       0.5993983 0.10025538 0.6655816 0.056849524

bias f4 [2]
000000 4d ea bc 3d 3a aa 11 bf
       0.09224377 -0.5690037

weight f4 [2]
000000 00 00 80 3f 00 00 80 3f
       1.0 1.0

bias f4 [2]
000000 3e 1d 7d 26 e7 ab 7f a6
       8.781664e-16 -8.870387e-16

weight f4 [2]
000000 00 00 80 3f 00 00 80 3f
       1.0 1.0

bias f4 [2]
000000 fe 36 9e 2f 9a 20 03 af
       2.8779107e-10 -1.1925963e-10

in_proj_weight f4 [6, 2]
000000 a4 3b 57 3f ac 5b 93 3e 5b 0d 91 3e d2 f6 4d 3e
       0.8407538 0.28780878 0.28330502 0.20113686
000010 b3 9e 23 bf 2c 91 b6 be 77 83 1c 3f 35 31 f5 be
       -0.6391403 -0.35657632 0.611381 -0.47889104
000020 3b 09 99 3e dd a3 22 3f 49 4b 44 bf 8d 06 22 bf
       0.29889855 0.63531286 -0.76677376 -0.63291246

in_proj_bias f4 [6]
000000 cb 2d 66 9e 24 2c b0 a0 ff 5a e2 1e 12 62 ce 9e
       -1.2185568e-20 -2.984477e-19 2.3966316e-20 -2.185166e-20
000010 69 bd fe ac ce b9 09 af
       -7.240143e-12 -1.2526088e-10

weight f4 [2, 2]
000000 b4 3a ae 3c b3 52 ac be 4f f4 6f 3d ac 6e 98 3e
       0.021268226 -0.33656844 0.0585826 0.29771936

bias f4 [2]
000000 d3 29 5b 2f 0b 9f 57 af
       1.9932793e-10 -1.961064e-10

weight f4 [2, 2]
000000 c1 3b 80 3e 50 93 39 3e 86 8f 17 be c2 15 2b bf
       0.2504559 0.18122602 -0.14800844 -0.66830075

bias f4 [2]
000000 5d d8 91 3d 96 00 1e bf
       0.07121346 -0.61719644

weight f4 [2, 2]
000000 5d 72 19 3f b1 52 cd 3d 62 63 2a 3f 0c db 68 3d
       0.5994013 0.10025538 0.66557896 0.056849524

bias f4 [2]
000000 26 f6 bc 3d 8a ab 11 bf
       0.092266366 -0.5690237

weight f4 [2]
000000 b8 00 80 3f b8 00 80 3f
       1.0000219 1.0000219

bias f4 [2]
000000 6c 36 bb 37 58 a1 bb b7
       2.231748e-05 -2.2367269e-05

weight f4 [2]
000000 27 40 a0 3f e1 a0 9e 3f
       1.2519578 1.2392846

bias f4 [2]
000000 9c 00 81 3e 21 07 75 be
       0.25195777 -0.239285

in_proj_weight f4 [6, 2]
000000 a4 3b 57 3f ac 5b 93 3e 5b 0d 91 3e d2 f6 4d 3e
       0.8407538 0.28780878 0.28330502 0.20113686
000010 b3 9e 23 bf 2c 91 b6 be 77 83 1c 3f 35 31 f5 be
       -0.6391403 -0.35657632 0.611381 -0.47889104
000020 f3 ff 47 3e b4 26 3d 3f 8c e0 80 bf 9b 23 c9 be
       0.1953123 0.7388718 -1.0068526 -0.39284977

in_proj_bias f4 [6]
000000 f4 bb 10 30 0f 88 ac 2f a1 c3 91 b0 95 a6 0f ae
       5.265399e-10 3.1383293e-10 -1.060574e-09 -3.266239e-11
000010 30 1e d3 bd 87 85 75 be
       -0.10308492 -0.23976718

weight f4 [2, 2]
000000 13 8a 4f be 89 b9 05 bf 0e ef 8f 3e f1 37 f6 3e
       -0.20267515 -0.5223623 0.28112072 0.48089555

bias f4 [2]
000000 e9 7e 7d 3e 02 da 7c be
       0.24755444 -0.24692538

weight f4 [2, 2]
000000 66 97 1e 3f 84 dc 40 be 42 12 8e 3e 00 33 8c bf
       0.61949766 -0.1883412 0.27748305 -1.0953064

bias f4 [2]
000000 45 df cf 3e 95 08 82 be
       0.4060003 -0.25397173

weight f4 [2, 2]
000000 04 8b 7f 3f eb 11 2b 3f 0a 9d 79 3e d3 4a 1d bf
       0.99821496 0.66824216 0.24376312 -0.614423

bias f4 [2]
000000 79 eb fe 3e 4c c6 7c bf
       0.49789026 -0.98740077

weight f4 [2]
000000 1b aa b5 3f 81 90 ba 3f
       1.4192537 1.4575349

bias f4 [2]
000000 8c a8 d6 3e 2e 42 ea be
       0.41925466 -0.45753616

weight f4 [2]
000000 50 50 94 40 77 e2 94 40
       4.634804 4.6526446

bias f4 [2]
000000 8c a0 68 40 e2 c4 69 c0
       3.634799 -3.6526418

in_proj_weight f4 [6, 2]
000000 d4 d3 50 3e 12 d3 a1 3e f6 32 8c be 60 b2 15 bf
       0.20393306 0.31606346 -0.2738263 -0.58475304
000010 2e 4a 91 be 18 18 22 bf 2b 2b 3c bf 5c 91 97 be
       -0.28376907 -0.63318014 -0.7350337 -0.29603088
000020 f3 7d 1d 3f b8 1e 0f bf ef 42 42 bf 43 4b d7 3d
       0.6152031 -0.5590625 -0.7588338 0.10512402

in_proj_bias f4 [6]
000000 b7 7c 22 18 00 00 00 00 c5 b9 de 97 00 00 00 00
       2.1000974e-24 0.0 -1.4393309e-24 0.0
000010 6c b4 2b 0e 49 26 24 0d
       2.1164247e-30 5.0582486e-31

weight f4 [2, 2]
000000 71 87 26 bf 21 c8 7d be ae b1 2f 3f ac ca 42 3d
       -0.6505042 -0.24783374 0.6863049 0.047556564

bias f4 [2]
000000 3e b7 00 8e 5b 5e ce 0d
       -1.5865446e-30 1.2718445e-30

in_proj_weight f4 [6, 2]
000000 13 4b 19 be 95 a3 ba 3e 8d 7a 6d 3d 53 49 3b bf
       -0.14970045 0.36452928 0.0579782 -0.7315876
000010 b4 ac e9 bb ef 41 1e bf 33 03 d3 3c 4d e8 ef 3e
       -0.0071311835 -0.61819357 0.025758361 0.4685692
000020 5f 4d 6b 3e 9a 04 cd ba 75 f0 56 bf a1 a3 77 3e
       0.22978733 -0.001564163 -0.8396066 0.24183513

in_proj_bias f4 [6]
000000 d9 8f 40 91 32 3b 93 93 ac ca bb 0f 15 8d d1 12
       -1.5190456e-28 -3.7166388e-27 1.851769e-29 1.3224534e-27
000010 3a 07 15 1d 0c 8b 09 9d
       1.9723722e-21 -1.8203685e-21

weight f4 [2, 2]
000000 3a 1e 35 bd fa 51 1b bf bb b5 6b 3e 0e c2 68 be
       -0.04421828 -0.6067196 0.23018543 -0.22730276

bias f4 [2]
000000 7c 56 aa 15 1e 6d 1b 1e
       6.87989e-26 8.2281966e-21

weight f4 [2, 2]
000000 ae 2a 05 bc 00 c9 cf be cc 87 a6 3e 36 f2 a3 3e
       -0.008127851 -0.40583038 0.3252548 0.3202073

bias f4 [2]
000000 43 61 25 bf 7f ea 3d 3e
       -0.64601535 0.18546484

weight f4 [2, 2]
000000 15 5b 1c 3f 08 9a e7 3e ea 56 8a 3d 75 03 83 be
       0.6107648 0.45234704 0.06754859 -0.25588575

bias f4 [2]
000000 8c bf c8 3d 0a 87 1f bd
       0.0980216 -0.038947143

weight f4 [2]
000000 00 00 80 3f 00 00 80 3f
       1.0 1.0

bias f4 [2]
000000 a5 e2 0b 9e 34 e2 0b 1e
       -7.405468e-21 7.4053764e-21

weight f4 [2]
000000 00 00 80 3f 00 00 80 3f
       1.0 1.0

bias f4 [2]
000000 54 3b 85 1a 02 68 c5 9a
       5.510336e-23 -8.1645324e-23

weight f4 [2]
000000 00 00 80 3f 00 00 80 3f
       1.0 1.0

bias f4 [2]
000000 00 d1 1b 23 ea f9 b6 a2
       8.446824e-18 -4.9595806e-18

in_proj_weight f4 [6, 2]
000000 d4 d3 50 3e 12 d3 a1 3e f6 32 8c be 60 b2 15 bf
       0.20393306 0.31606346 -0.2738263 -0.58475304
000010 2e 4a 91 be 18 18 22 bf 2b 2b 3c bf 5c 91 97 be
       -0.28376907 -0.63318014 -0.7350337 -0.29603088
000020 f3 7d 1d 3f b8 1e 0f bf ef 42 42 bf 43 4b d7 3d
       0.6152031 -0.5590625 -0.7588338 0.10512402

in_proj_bias f4 [6]
000000 09 68 e5 1e 84 e9 96 1d e1 84 75 95 57 09 52 16
       2.4289346e-20 3.994612e-21 -4.958218e-26 1.6966612e-25
000010 11 70 46 a4 06 83 26 a3
       -4.302933e-17 -9.026623e-18

weight f4 [2, 2]
000000 71 87 26 bf 21 c8 7d be ae b1 2f 3f ac ca 42 3d
       -0.6505042 -0.24783374 0.6863049 0.047556564

bias f4 [2]
000000 88 2d 0d 24 55 d0 0f a4
       3.0613068e-17 -3.1184646e-17

in_proj_weight f4 [6, 2]
000000 13 4b 19 be 95 a3 ba 3e 8d 7a 6d 3d 53 49 3b bf
       -0.14970045 0.36452928 0.0579782 -0.7315876
000010 b4 ac e9 bb ef 41 1e bf 33 03 d3 3c 4d e8 ef 3e
       -0.0071311835 -0.61819357 0.025758361 0.4685692
000020 5f 4d 6b 3e 9a 04 cd ba 75 f0 56 bf a1 a3 77 3e
       0.22978733 -0.001564163 -0.8396066 0.24183513

in_proj_bias f4 [6]
000000 ab 90 7d 1b 8f bf 89 9e bd 6c e8 98 d1 82 a2 1d
       2.0974414e-22 -1.4584666e-20 -6.0080392e-24 4.3016304e-21
000010 0a 9b 40 a8 48 f2 55 28
       -1.069176e-14 1.1876412e-14

weight f4 [2, 2]
000000 3a 1e 35 bd fa 51 1b bf bb b5 6b 3e 0e c2 68 be
       -0.04421828 -0.6067196 0.23018543 -0.22730276

bias f4 [2]
000000 e4 36 39 25 3f 65 5a a9
       1.606479e-16 -4.849354e-14

weight f4 [2, 2]
000000 ae 2a 05 bc 00 c9 cf be cc 87 a6 3e 36 f2 a3 3e
       -0.008127851 -0.40583038 0.3252548 0.3202073

bias f4 [2]
000000 43 61 25 bf 7f ea 3d 3e
       -0.64601535 0.18546484

weight f4 [2, 2]
000000 15 5b 1c 3f 08 9a e7 3e ea 56 8a 3d 75 03 83 be
       0.6107648 0.45234704 0.06754859 -0.25588575

bias f4 [2]
000000 8c bf c8 3d 0a 87 1f bd
       0.0980216 -0.038947143

weight f4 [2]
000000 00 00 80 3f 00 00 80 3f
       1.0 1.0

bias f4 [2]
000000 b5 0c 44 29 48 0c 44 a9
       4.3531764e-14 -4.3531395e-14

weight f4 [2]
000000 00 00 80 3f 00 00 80 3f
       1.0 1.0

bias f4 [2]
000000 c9 ba 2c 2d 6f 3e d4 ac
       9.818543e-12 -6.032334e-12

weight f4 [2]
000000 02 00 80 3f f8 ff 7f 3f
       1.0000002 0.9999995

bias f4 [2]
000000 35 1a 83 34 54 dd c2 b4
       2.441972e-07 -3.6296353e-07

in_proj_weight f4 [6, 2]
000000 ef d3 50 3e 08 d3 a1 3e f6 32 8c be 60 b2 15 bf
       0.20393346 0.31606317 -0.2738263 -0.58475304
000010 2e 4a 91 be 18 18 22 bf 2b 2b 3c bf 5c 91 97 be
       -0.28376907 -0.63318014 -0.7350337 -0.29603088
000020 f1 7d 1d 3f b6 1e 0f bf e8 42 42 bf 44 4b d7 3d
       0.61520296 -0.55906236 -0.7588334 0.10512403

in_proj_bias f4 [6]
000000 e3 e2 16 b5 9f 6a e1 b3 03 2f 05 aa 39 a4 44 a8
       -5.620952e-07 -1.0496773e-07 -1.1829083e-13 -1.0915796e-14
000010 33 da 9a b5 b6 59 68 b4
       -1.1537398e-06 -2.163932e-07

weight f4 [2, 2]
000000 6f 87 26 bf 28 c8 7d be ad b1 2f 3f d8 ca 42 3d
       -0.65050405 -0.24783385 0.68630487 0.047556728

bias f4 [2]
000000 85 b7 7d 35 74 e1 80 b5
       9.45169e-07 -9.602359e-07

in_proj_weight f4 [6, 2]
000000 13 4b 19 be 95 a3 ba 3e 91 7a 6d 3d 53 49 3b bf
       -0.14970045 0.36452928 0.057978217 -0.7315876
000010 ae ac e9 bb ef 41 1e bf 08 03 d3 3c 4d e8 ef 3e
       -0.0071311807 -0.61819357 0.025758281 0.4685692
000020 de 20 f1 3e a5 8c 78 be 58 29 a1 bf 76 4a 29 3f
       0.47095388 -0.24272402 -1.2590742 0.66129243

in_proj_bias f4 [6]
000000 45 b7 b6 31 7d a8 92 b3 5e 91 38 31 9c 20 9d b3
       5.3177325e-09 -6.8293026e-08 2.6858156e-09 -7.316814e-08
000010 56 5a 2a 3e 16 ca b0 be
       0.16636023 -0.3452918

weight f4 [2, 2]
000000 eb d7 be 3e 2b fb af bf 83 a9 c9 be c0 47 5d be
       0.37274107 -1.3748525 -0.3938714 -0.21609402

bias f4 [2]
000000 44 d0 1b 3f 92 8b 0a bd
       0.60864663 -0.03382451

weight f4 [2, 2]
000000 ae 2a 05 bc 00 c9 cf be f8 18 ed 3e 80 bf 3a 3e
       -0.008127851 -0.40583038 0.46308112 0.18237114

bias f4 [2]
000000 43 61 25 bf 9a 9f 88 3d
       -0.64601535 0.066710666

weight f4 [2, 2]
000000 15 5b 1c 3f da 45 a1 3e ea 56 8a 3d 94 dc e9 bd
       0.6107648 0.31498605 0.06754859 -0.11419025

bias f4 [2]
000000 b3 c5 01 3f 36 37 26 3e
       0.5069229 0.16231999

weight f4 [2]
000000 c2 89 78 3f 59 82 78 3f
       0.970852 0.97073895

bias f4 [2]
000000 d9 9b f2 3c 1d 85 f3 bc
       0.02961533 -0.02972656

weight f4 [2]
000000 75 be 16 3f ef 44 17 3f
       0.58884364 0.5908956

bias f4 [2]
000000 ce 83 d1 3e f0 fe d0 be
       0.40920871 -0.40819502

weight f4 [2]
000000 c3 ed d2 3e 3d 85 02 3f
       0.41197023 0.50984555

bias f4 [2]
000000 68 e0 35 3f 4f 39 46 bf
       0.7104554 -0.77431196

in_proj_weight f4 [6, 2]
000000 9e f2 fd 3e cc e1 c4 3c 6e 9b ad 3c 6b 36 61 bf
       0.49599165 0.02403345 0.021192279 -0.8797366
000010 1d d7 7d bd 74 e1 5a bf 25 9f 84 bf b7 4c a4 3b
       -0.061972726 -0.85500264 -1.0361067 0.005014028
000020 59 2f e5 3d 39 27 5f bd 5a 81 a4 bf fb e7 22 3f
       0.111906715 -0.054480765 -1.2851975 0.63635224

in_proj_bias f4 [6]
000000 a4 53 ff be a0 92 fa be b2 e9 e3 3d e0 c8 80 be
       -0.498685 -0.4893999 0.11128558 -0.25153255
000010 6d 7f 00 bf 28 56 06 bf
       -0.50194436 -0.52475214

weight f4 [2, 2]
000000 00 c7 24 be 38 99 4c bf b4 b1 49 3e 51 b3 18 3f
       -0.16091537 -0.79921293 0.19696695 0.59648615

bias f4 [2]
000000 dc 42 04 3f 4b f3 03 bf
       0.5166452 -0.5154311

in_proj_weight f4 [6, 2]
000000 8b 54 bd be 67 42 15 3f 0c 57 ea 3d 97 a6 4f bf
       -0.36978564 0.58304447 0.11442384 -0.8111357
000010 cd e7 a1 3e 5d 6d 6c bf 82 95 1b be 01 2a 1a 3f
       0.31622162 -0.92354375 -0.15193751 0.6022034
000020 f3 08 79 40 39 64 6a c0 c1 81 94 c0 2e 39 81 40
       3.8911712 -3.662367 -4.640839 4.03823

in_proj_bias f4 [6]
000000 b9 f4 98 3e 7f f9 bc be 26 2c 9a 3e e6 b1 8e be
       0.2987421 -0.369091 0.30111808 -0.278701
000010 21 06 67 40 06 ae 75 c0
       3.609749 -3.8387465

weight f4 [2, 2]
000000 f1 a3 5c 40 c2 4d 8a c0 bb e9 6c c0 d6 00 7b 40
       3.4475062 -4.321992 -3.7017658 3.921926

bias f4 [2]
000000 ed 46 74 40 fa 2e 89 c0
       3.816829 -4.2869844

weight f4 [2, 2]
000000 3c 6a 1c 3e a1 f2 21 bf 83 b2 77 3e 9a e6 9d 3e
       0.152749 -0.6326085 0.2418919 0.30839998

bias f4 [2]
000000 3e 99 11 bf de 51 2d bf
       -0.56874454 -0.67703044

weight f4 [2, 2]
000000 ce b8 f5 3e 51 e7 f0 3e d0 19 78 bf cd 94 f9 be
       0.47992557 0.4705148 -0.96914387 -0.48746338

bias f4 [2]
000000 34 48 01 41 57 7f 0d c1
       8.080128 -8.843589

weight f4 [2]
000000 08 3d 92 40 59 4f 8d 40
       4.56995 4.415936

bias f4 [2]
000000 1a 11 98 40 1d 23 93 c0
       4.7520876 -4.5980363

weight f4 [2]
000000 d1 36 9f 40 3b 36 a7 40
       4.9754415 5.22537

bias f4 [2]
000000 2c df 8d 40 bc a3 94 c0
       4.4334927 -4.644987

weight f4 [2]
000000 4e 13 9f 42 c4 f5 9f 42
       79.537704 79.98001

bias f4 [2]
000000 84 0d 9d 42 90 f7 9d c2
       78.5264 -78.98352

weight f4 [2, 2]
000000 e1 99 9e 42 52 73 9d c2 2b 89 9c 42 ca 83 9d c2
       79.300545 -78.725235 78.26791 -78.7574

bias f4 [2]
000000 ef b7 8e 42 bd 80 91 42
       71.359245 72.75144
